LAB_4/model.pth (torch, 251292 bytes, 10 tensors)

conv1.weight f4 [6, 3, 5, 5]
000000 4a ae 09 be 89 dd e2 bc d3 a8 c4 bd 9c e3 0c bc
       -0.13445392 -0.027693527 -0.09602513 -0.008599188
000010 c6 59 43 be ca 08 9b bd 3c 53 e8 bb 70 d1 0e be
       -0.19077215 -0.07570036 -0.0070900004 -0.13947082
000020 5b 63 b7 bd c3 c4 51 be 89 b6 3e be 1e 6d 4c bd
       -0.089544974 -0.20485215 -0.18624319 -0.04990875
000030 db ac ed bd 5b b8 9d bd 0e 34 f9 bd 14 72 09 be
       -0.11605235 -0.07701179 -0.12168132 -0.13422424
000040 e5 53 a1 bd 0e a3 38 be 6d 5e 41 bd 4c 52 40 be
       -0.0787733 -0.1803095 -0.047209192 -0.18781394
000050 ad e3 d6 bc 00 02 c0 bd e2 68 4e be 4c a0 c7 bd
       -0.026231611 -0.093753815 -0.20157197 -0.09747371
000060 d8 a5 8e bd 46 90 19 3e d3 97 80 3e 30 2b 58 3e
       -0.06965226 0.14996442 0.25115833 0.21110225
000070 ed e2 43 3e 1e d1 89 3d 04 2d 91 3d b7 9a 91 3e
       0.19129534 0.06729339 0.07088664 0.2843835
000080 87 e8 35 3e f6 9e 12 3d 0b af 0e bd ba 3b 26 bd
       0.17764483 0.03579613 -0.034834903 -0.040584303
000090 db 1d 24 3e 4c df fb 3d c8 f6 86 3d 84 6e 43 3d
       0.16027014 0.1229845 0.065900385 0.047712818
0000a0 be 0a 87 3d 0c 7c d5 3d 79 05 03 3e 71 5e e3 b8
       0.06593846 0.10424051 0.12795056 -0.000108417946
0000b0 c3 27 01 3e 3a 32 2b bd 3c 97 c5 3c 6c 3e 05 3e
       0.12612824 -0.041795947 0.024119966 0.13012093
0000c0 ee e1 05 3e 2c 9b a1 bd cb f7 51 3e 8e 45 a0 3e
       0.13074467 -0.07890925 0.20504682 0.31303066
0000d0 5b 85 d4 3e 79 a3 a2 3e 08 8c 99 3d 72 fa 43 3e
       0.41507992 0.31765345 0.07497412 0.19138506
0000e0 10 0f 92 3e b6 c3 af 3e 44 4a b3 3e f2 2a 20 3d
       0.28527117 0.34329003 0.35017598 0.039103456
0000f0 ac f0 17 3e fc 1a 2f 3e a5 95 ae 3e b4 88 79 3e
       0.14837903 0.17100137 0.34098545 0.24368554
000100 2a f7 58 3e a2 9a 42 3e f0 4c 1c 3e 30 51 8e 3e
       0.21188036 0.190043 0.15263724 0.27796316
000110 c7 97 87 3e 5c 20 56 3e 86 26 6b 3d 6b e9 95 3e
       0.26482984 0.20910782 0.057409786 0.29279646
000120 ff 45 78 3e 52 9f 25 3e 58 6c 31 3e 6c 2c 32 bd
       0.24245451 0.16174057 0.17326486 -0.043499395
000130 ae ba 48 3c eb ec 7c 3e 55 ec 78 3e d6 23 12 3e
       0.012251539 0.24699752 0.24308904 0.14271483
000140 7f 55 9c 3d e9 b9 79 be 73 5a 09 bd 6c f1 be 3e
       0.076334946 -0.24387325 -0.033533525 0.37293565
000150 82 14 47 3e 79 80 80 3d 82 17 8b be 32 fc b3 3c
       0.19441417 0.06274504 -0.27166373 0.021970842
000160 33 71 4a 3e 53 0e 96 3e e6 4f 65 3e 3b bf 75 be
       0.19769745 0.29307804 0.2239376 -0.2399873
000170 a2 b5 d5 bd 24 65 59 3e 48 ad 66 3e c8 df 95 3e
       -0.10435034 0.21229988 0.22527039 0.29272294
000180 51 99 eb bc 9e e2 4d be e9 7e 81 3d ac 45 a5 3e
       -0.02875963 -0.20105979 0.06323034 0.32279718
000190 f2 b9 6d bd 03 97 8f be 9d 6d ea bd 23 5b eb 3d
       -0.05803866 -0.280449 -0.11446688 0.11491992
0001a0 4f f3 1e be 5d b6 0c be 9f f0 e0 be 90 2c ee bd
       -0.15522502 -0.13741441 -0.4393358 -0.11629593
0001b0 d8 46 21 3e 6e d6 d5 bc 1a ea c7 ba 15 34 12 bf
       0.15749681 -0.026103225 -0.0015252263 -0.5711072
0001c0 26 b8 c5 be d2 2d 06 3e cb b4 76 3e fa 42 9a 3d
       -0.38617057 0.13103417 0.24092405 0.07532306
0001d0 2f e9 f6 be b2 18 f2 be c5 33 9b 3d e0 97 73 3d
       -0.4822478 -0.47284466 0.07578234 0.05947101
0001e0 c5 0a 1b 3e d4 31 8c be de 3d ed be e8 26 32 be
       0.15140827 -0.27381766 -0.46336263 -0.17397654
0001f0 ae d2 90 3d 12 52 23 bc 94 83 8e bc 34 69 0c 3e
       0.07071434 -0.009968298 -0.017396726 0.13712007
000200 c0 52 5b 3e 48 6d 8c 3d c5 2e 53 3d b9 c9 87 be
       0.21418285 0.06856781 0.051558275 -0.2652109
000210 b1 60 df 3d 1a 60 40 3e 50 51 72 3e b2 02 8a 3e
       0.10907114 0.1878666 0.23663831 0.2695518
000220 f3 08 16 be e8 79 2e be c2 2c 85 3e c8 16 64 3e
       -0.14651851 -0.17038691 0.2601071 0.22274315
000230 94 5e 94 3e 49 83 93 be 35 20 5c be 56 3a 06 3e
       0.28978407 -0.288111 -0.21496661 0.13108191
000240 d0 e4 74 3e f6 5b 7f 3e 49 25 3c bd 17 87 1c be
       0.2391541 0.24937424 -0.045933995 -0.15285908
000250 1d 23 31 3e dc 44 53 3e b4 8f e9 3d 88 64 d7 bc
       0.17298551 0.20631737 0.11404362 -0.026293054
000260 76 ae 2f be 78 cc 8a bd 69 41 20 3e 2a 0a b2 be
       -0.17156395 -0.067772806 0.15649952 -0.3477338
000270 8e 04 31 bf e7 1b 15 bf 33 e5 c6 be dc 59 11 be
       -0.69147575 -0.582457 -0.3884674 -0.14194435
000280 41 c8 17 be 80 2f a9 be 30 fb 74 be fc 27 9a be
       -0.14822485 -0.33044052 -0.23923945 -0.3010863
000290 98 90 3d be 32 58 16 3d 00 ad 0c 3f 8d 11 36 3f
       -0.1851219 0.036705203 0.5495148 0.7112053
0002a0 d2 70 f5 3e 07 72 9f 3e 83 3d 8a 3e 89 71 fa 3e
       0.47937638 0.31141683 0.27000055 0.48914745
0002b0 e4 08 d8 3e b5 97 a9 3e 05 c7 2d 3e b6 ee 35 3e
       0.42194283 0.33123556 0.16970451 0.17766842
0002c0 63 00 81 bd fe 3f 47 be 76 c5 24 bc a5 15 64 3d
       -0.06298902 -0.19458005 -0.010056844 0.055684704
0002d0 90 29 4e be 72 df 15 bf 36 d3 15 bf be b4 e1 be
       -0.20133042 -0.58544075 -0.5852541 -0.44083208
0002e0 cd 2c 04 3d b8 f1 19 be 33 c3 a9 be 28 03 51 be
       0.032269288 -0.15033615 -0.33156738 -0.2041136
0002f0 82 aa 82 be 5c 16 ee bd 8f 2a 20 3e e4 26 0e 3f
       -0.25520712 -0.116253585 0.15641235 0.5552809
000300 b4 36 06 3f 51 19 09 3f 5e b5 1d 3e f2 5a 00 3e
       0.5242722 0.53554255 0.15401217 0.12534693
000310 e9 bc b6 3e cc 38 f5 3e ff ae 9d 3e 86 4e f1 bc
       0.35691002 0.47894895 0.30797574 -0.029456388
000320 05 e9 ad 3e bd 6d 20 3e 32 32 11 bd d3 0f 2a 3c
       0.33966842 0.15666862 -0.03544826 0.010379749
000330 e5 8b 53 3e 30 d4 44 be c5 d5 d0 be 0b 2b 05 bf
       0.20658834 -0.19221568 -0.40788093 -0.52018803
000340 7c 41 90 be bd b0 eb 3c 79 ad bf be a6 91 ab be
       -0.2817496 0.028770799 -0.37437037 -0.33509558
000350 d9 4e a5 be 8a 80 dd bd 63 74 07 be c0 cd a5 3d
       -0.32286718 -0.108155325 -0.13227992 0.08095884
000360 d8 24 97 3e 49 ee 12 3f 2f 99 d3 3e f0 34 20 3d
       0.29520297 0.57394844 0.41327807 0.039112985
000370 a5 56 20 bd f9 71 6c 3e 8d 45 59 3e 85 17 80 3d
       -0.03914513 0.23090352 0.21217938 0.06254486
000380 04 12 ef bd c8 9b 82 be 3b a9 98 bb 70 a1 4d 3e
       -0.11673358 -0.25509477 -0.0046588457 0.20081115
000390 da 62 bb bc 0c dc 9b bc 1f 59 04 bf 51 2c 10 bd
       -0.022874285 -0.019025825 -0.5169849 -0.035198513
0003a0 6c 25 0e 3f f3 f9 64 be 53 ae 4c be b5 f1 c2 be
       0.5552585 -0.22360973 -0.19988374 -0.38075033
0003b0 9b b7 3c be 6d 62 01 3f a7 42 8e bd 66 5e 80 be
       -0.18429415 0.5054081 -0.06946307 -0.2507202
0003c0 0d a5 b8 bd 7e 0a 90 bd a9 84 8b 3e b2 7c c8 3d
       -0.09015856 -0.07033251 0.2724965 0.09789409
0003d0 20 70 b5 bd 37 f5 e7 3d 35 b7 b4 3d f8 f9 d9 bd
       -0.08859277 0.11326068 0.088240065 -0.10643381
0003e0 3c 19 84 3e b0 67 18 3e 16 bb c4 3b e8 bb 13 3d
       0.25800502 0.14883304 0.0060037477 0.036067873
0003f0 e6 62 a6 3e e8 23 c9 3d 0a 4f a2 3d 58 f4 6d be
       0.3249733 0.09821302 0.07925232 -0.23237741

conv1.bias f4 [6]
000000 bd 69 74 be a3 31 a7 bd 75 35 c3 bd 3c 80 ab 3e
       -0.23868461 -0.08163764 -0.095316805 0.33496273
000010 91 a0 c5 bd eb 3b f5 bc
       -0.09649766 -0.029935798

conv2.weight f4 [16, 6, 5, 5]
000000 90 1d 65 bd 99 06 ab 3c 57 a4 76 bd c4 31 70 bd
       -0.055936396 0.02087717 -0.06021532 -0.05864121
000010 ab ff 7b 3c 59 52 9b bc 23 e3 48 3d 17 aa 22 bc
       0.01538078 -0.018960165 0.04904474 -0.009928248
000020 31 88 46 bd 3e 47 e5 bd d3 b0 7d 3d 8f b6 5f bd
       -0.048469726 -0.11195229 0.06193621 -0.05461746
000030 25 67 72 3c d0 98 15 bd d1 b5 b6 bd fe bf 88 3d
       0.014795099 -0.036522686 -0.089213975 0.066772446
000040 d9 c4 a0 3d 83 59 9e 3c 2a 1b 7b 3b 7e b9 86 bd
       0.07850046 0.019329792 0.0038315752 -0.065783486
000050 fd f6 c3 3c 77 0d 4b bc d6 11 47 3d 76 f4 b5 bd
       0.023921484 -0.012393347 0.048600994 -0.08884518
000060 ec da 53 3d 45 81 1d 3a 74 e5 b3 3b d7 77 2c 3c
       0.051722452 0.00060083374 0.0054899994 0.010526619
000070 ea 8e 64 3d a6 c6 2d bd 51 03 2d 3d ea 86 72 3d
       0.055800356 -0.042425774 0.04223949 0.059210695
000080 bc 36 89 bd 05 bb b8 bc 6c 87 78 bd c3 64 7c 3d
       -0.06699893 -0.022550115 -0.060676023 0.06161953
000090 00 1e 7a bd 65 0c 92 3b 86 17 9a ba b2 eb 61 bd
       -0.061063766 0.004457044 -0.0011756278 -0.055156417
0000a0 5b d2 0e bd 3a b1 59 bd f6 e6 75 3d 3d a2 0f bd
       -0.03486858 -0.053147532 0.060034715 -0.03506683
0000b0 96 47 ee 3b 52 88 bb 3d f5 60 c9 3c df f7 3c bd
       0.0072717173 0.091568604 0.024582366 -0.046134826
0000c0 dc 59 b5 39 96 ab 51 bd 99 80 34 bd bf 9d ba bd
       0.0003458996 -0.051189028 -0.044067953 -0.09112119
0000d0 17 13 4a bb b5 f7 04 bd bc d9 5f 3d 43 db 94 3d
       -0.0030834132 -0.032462794 0.054651007 0.07268383
0000e0 75 4b b2 3d dd 15 3f 3c 81 8f e2 3a 27 f6 ec bc
       0.087057985 0.011662927 0.0017285199 -0.028925968
0000f0 07 50 af 3d 68 be 07 3d f5 b4 2b 3d 7e 34 93 bd
       0.08560186 0.03314057 0.04192062 -0.071877465
000100 95 1b ff 3c a3 8d bc 3d 25 2d a7 3c 79 2d 42 bd
       0.031141082 0.092067026 0.020407269 -0.047406647
000110 7a db 8e bd 2d 3e 0f bd b7 1c 22 bd 8b 9e c4 3d
       -0.069754556 -0.034971405 -0.039578166 0.09600552
000120 35 09 2e 3d bf 07 18 bd 45 f5 3c 3d 23 28 8a bc
       0.04248925 -0.037116762 0.046132345 -0.016864842
000130 ba 68 bd 3d a4 3c a7 3d 9f 20 2e bd 2a 20 45 3d
       0.09248491 0.08165863 -0.04251158 0.048126377
000140 f0 c7 a0 3d e6 ad 7c 3d 1e 97 2d 3d 0d fd 7d 3c
       0.07850635 0.06168928 0.042380445 0.015502227
000150 c0 6e a2 bc 00 ed 9a bd 12 01 44 bd 5f 6b f7 bc
       -0.0198282 -0.075647354 -0.047852583 -0.030202566
000160 64 6d d0 3c bb 51 e2 3c b7 d0 dc 3b 95 88 16 3d
       0.025442787 0.027626863 0.006738748 0.03675135
000170 eb c0 ca bc cb 7d 90 bb 2b 44 b6 3c 4d b5 ba 3d
       -0.024750194 -0.004409527 0.022249302 0.09116612
000180 df 56 d6 3d 59 a8 8a 3c 2d 86 a0 bb 93 2e b9 bc
       0.10465788 0.016925978 -0.0048988075 -0.022605216
000190 16 c7 76 bd be cd 86 3d e7 14 89 bd 4e 12 2b 3d
       -0.060248457 0.06582211 -0.0669344 0.041765504
0001a0 43 b6 b5 3c a0 13 85 bd 02 8f c1 3c cc c4 63 bd
       0.022181636 -0.06497884 0.023627762 -0.055607602
0001b0 a9 3a bd bb e7 15 5e 3d 46 eb 59 bd dd 4d aa bd
       -0.005774815 0.054220106 -0.05320289 -0.083156325
0001c0 01 e1 2f bd 03 ab 4a bd ca 80 df 3b 60 10 3e 3c
       -0.04293919 -0.049479496 0.006820773 0.011600584
0001d0 23 0d 1d 3c ab f2 90 3d e4 b6 d5 3c 4a 2a 62 3c
       0.009585652 0.07077535 0.026088186 0.013804028
0001e0 98 fc 0c bd 65 db e4 3c e0 2d ba 3c 1a 96 98 3d
       -0.03442058 0.027936647 0.022726953 0.074505046
0001f0 bd 80 25 bd d8 b6 5b bc 01 66 30 bc 5f 37 e0 3b
       -0.040405978 -0.013410293 -0.010766507 0.0068425382
000200 0b 8b ac b9 31 70 8d bd 57 0c 38 bd 57 d9 ce bc
       -0.00032909992 -0.069061644 -0.044933643 -0.02525012
000210 da 67 29 bd ab e6 df 3b ad 94 a7 3c be 5a ab 3c
       -0.041358806 0.0068329177 0.020456636 0.020917293
000220 ef 71 15 39 cc 2e 1d 3d 3b 3c f2 3c b8 19 8c bd
       0.00014252191 0.038374707 0.029569736 -0.06840843
000230 28 5e 93 bc 32 76 f5 bc f8 9d 42 3b 0c 71 76 bd
       -0.017989233 -0.029963586 0.0029696207 -0.060166404
000240 ff db 61 3d 33 78 99 3c b3 ff 83 bd 83 c0 ab bc
       0.055141445 0.018734073 -0.06445255 -0.02096582
000250 b8 37 2d 3b fd a2 ca bc a9 fa 61 3e c0 d7 5b 3d
       0.0026430916 -0.024735922 0.22068276 0.053672552
000260 f5 4a 8a bd 37 5b da 3c ee b9 b7 3d 69 bc 06 3e
       -0.06752578 0.026654823 0.0897101 0.1315781
000270 be b8 f9 b8 4c 6b 85 bb 7c 3d 8b bd 6c a6 ce 3a
       -0.00011907656 -0.0040716287 -0.067988366 0.001576615
000280 21 32 96 3e 41 d6 de 3d dd 34 28 bd 6d 08 cb 3d
       0.2933512 0.108807094 -0.04106604 0.099137165
000290 ee 55 13 3d 94 58 9f 3e ba 24 6a 3e de 61 10 3e
       0.03597062 0.31122267 0.22865573 0.14099833
0002a0 a2 46 7e 3d 8b ff ed 3d 87 d0 4e 3e 90 92 97 3e
       0.06207908 0.116210066 0.20196734 0.29604006
0002b0 88 51 30 3e d6 81 6c 3d bd 67 d0 3c 3e 38 18 bd
       0.17218602 0.05774101 0.025440091 -0.03716301
0002c0 66 bb d4 bb 6c 30 7e bd 22 60 24 bd 92 a3 6a 3c
       -0.006492066 -0.062057897 -0.040130742 0.014321225
0002d0 b8 3b 2e bd 47 f0 05 3d 4a e3 e2 bc 44 bc f7 bc
       -0.04253742 0.03269985 -0.02769627 -0.03024114
0002e0 74 80 94 3d ed 22 8b bc 05 51 5f bd 27 c0 cf bd
       0.07251063 -0.016984427 -0.054520626 -0.10144072
0002f0 da 97 84 bd 4d 66 72 bd 88 2a 7b bd e8 25 c2 3c
       -0.06474276 -0.059179593 -0.061319858 0.023699716
000300 ef fe 93 bd e9 44 1d 3d bd 68 70 3d 1f fa 44 bc
       -0.07226359 0.038395796 0.058693636 -0.012022524
000310 ce 47 83 bd 55 cc 81 bc 7a ee e6 3c 09 11 4b bd
       -0.0641018 -0.015844503 0.028189886 -0.049576793
000320 ff ee da bd 2b f2 3a 3d f3 83 c4 bc 2d 9f 87 bc
       -0.10690116 0.045641106 -0.0239887 -0.016555393
000330 d9 f5 ff bd 00 bb d3 bc c3 4f 35 3d 47 fd 06 3d
       -0.124980636 -0.025846004 0.04426552 0.032956388
000340 20 99 01 3d d1 4e 04 bd 18 6d 37 bc f0 f5 ac bd
       0.031640172 -0.032301728 -0.011195444 -0.08445346
000350 b9 08 e1 3b e2 2e 3e bd 75 32 6e bc 17 20 db 3d
       0.006867495 -0.04643143 -0.014538397 0.1069948
000360 65 a0 47 3d c2 f6 ac bc 37 d9 53 3d c2 d0 8e bd
       0.04873695 -0.021113757 0.051720824 -0.06973411
000370 ec 04 93 3d 71 84 28 bd ee 14 e0 bc dd 89 c2 bb
       0.07178673 -0.04114193 -0.02735373 -0.0059368447
000380 2d d0 d1 3b c8 6d 41 be 30 8e 0f bd d4 0f ce bd
       0.0064029903 -0.18889534 -0.03504771 -0.10061613
000390 2e d0 bd bc 85 3e 6c bd db f4 d8 bd 31 33 a5 bd
       -0.023170557 -0.05767681 -0.105935775 -0.080664046
0003a0 b8 8f f3 bc e8 b9 92 bd 57 b6 a1 bd fb e0 71 bc
       -0.029731616 -0.07164365 -0.07896107 -0.014763112
0003b0 77 49 ee bd 76 ee c4 bd cd 8d 0b 3d 49 9e 9d bd
       -0.11635106 -0.09615795 0.03407078 -0.07696206
0003c0 d3 c3 8b 3d 24 49 d3 bc 3f 17 63 3b ca ca d5 3d
       0.0682446 -0.025791712 0.0034651307 0.104390696
0003d0 90 23 af 3d 5c e1 9b bc 3f a1 83 bc 96 1a 02 bd
       0.08551705 -0.019028358 -0.016068099 -0.031763636
0003e0 15 af 80 3d a5 0e 9e 3d 77 d7 f2 bd 6d 11 c2 bd
       0.06283394 0.07717637 -0.11857503 -0.0947598
0003f0 ac 5c 06 be f4 e5 d1 bd ae a4 38 bd 5a a5 06 be
       -0.13121289 -0.10248938 -0.045078926 -0.13149014

conv2.bias f4 [16]
000000 25 4b 8b 3d 3d 7e 52 bd 48 40 d3 bd 7a 11 1b bd
       0.06801442 -0.05138992 -0.10314995 -0.037858464
000010 ef 65 58 3d c9 21 c1 3e c0 2d 15 be b6 43 36 3d
       0.052831586 0.3772109 -0.14568233 0.044498168
000020 0f ee aa bd 79 70 75 be 04 73 4b be 54 e8 b1 bd
       -0.08346187 -0.23968686 -0.19868094 -0.08686891
000030 f4 b6 a2 3e bc 7d bb be dd 72 33 be 1a 07 d1 3d
       0.31780207 -0.36619365 -0.17524286 0.10206433

fc1.weight f4 [120, 400]
000000 97 95 36 3d 57 1d a7 3c 33 eb 82 3c a1 58 b7 bc
       0.044576254 0.020399733 0.015981292 -0.022381129
000010 95 3a c1 3c 5d 4e 05 3d 4e 58 23 bc 87 fb 8f bc
       0.023587504 0.032545436 -0.009969784 -0.017575992
000020 b6 49 2d 3d a1 6e ac 3c 7c 41 31 3c 30 92 48 3c
       0.042306624 0.021048846 0.010818835 0.012241885
000030 2c 4d 4a 3d 00 f2 3f 3d f9 f9 3a bd c8 d1 40 bd
       0.049390003 0.04686165 -0.04564855 -0.047075063
000040 f0 a1 b8 3c e4 0e 12 3d 27 21 20 bd 3a d2 3b 3c
       0.022538155 0.035658732 -0.039094117 0.011463696
000050 78 37 d7 bc 7b 54 39 b9 9c f1 4d bd ab ff 1f 3a
       -0.026271567 -0.00017674446 -0.050279245 0.0006103466
000060 59 22 7a bc e8 c8 3b bd 70 a9 a1 3c 32 16 bc bc
       -0.015266978 -0.045845896 0.019734114 -0.022959802
000070 9c b4 88 3c 90 23 56 bd bd 42 1e 3d 97 c2 3a bd
       0.016687684 -0.05228001 0.038637865 -0.04559573
000080 9c 89 a4 bc 61 db 5d bc 97 61 43 3c f6 e2 89 b9
       -0.020085149 -0.013541074 0.011925123 -0.00026299775
000090 be 66 5f 3c 37 50 30 3c 3a b4 ba ba ad bf 84 3d
       0.0136353355 0.010761312 -0.0014244386 0.06481872
0000a0 05 3c 6d bd 0c ca 27 3d 94 87 1a 39 c8 19 58 3c
       -0.057918567 0.04096417 0.00014737091 0.0131897405
0000b0 40 25 25 3d c3 88 b8 bd 94 df 59 bd ff e4 da bc
       0.040318727 -0.0901046 -0.053191736 -0.026720522
0000c0 92 c4 69 3c d2 e2 f2 bb de e3 87 3b 48 1e c6 3d
       0.014268057 -0.007412293 0.004147037 0.096737444
0000d0 a7 0b 4d 3c 90 b7 58 3d 9e 14 62 3c b3 3e 87 3c
       0.012514985 0.052909434 0.013798861 0.01650939
0000e0 43 8d c4 3d 86 b0 ee 3b 30 52 e3 3c 87 da 17 bd
       0.09597256 0.007284227 0.027749151 -0.03707364
0000f0 41 30 43 3d 47 39 94 3d 8d 5e 02 bd df 70 23 3c
       0.04765344 0.07237487 -0.031828452 0.009975641
000100 f6 ff 80 3d ed 9f 96 bc 0d 67 ed 3c 8e fd c4 3c
       0.06298821 -0.018386805 0.028979803 0.024046686
000110 45 be 76 3c 7b 1e aa 3c 19 cc 3f bd 8c ae 1a 3d
       0.015060012 0.020766487 -0.046825502 0.037764117
000120 0b ee cc 3c ce fa 86 3c 75 54 20 3d b5 97 1b bd
       0.025015851 0.016477015 0.039143045 -0.037986476
000130 c1 6b e0 bc f3 c0 17 3c 10 d4 30 3b b0 dc eb 3a
       -0.027395131 0.009262311 0.0026981868 0.0017994847
000140 7c ec ef bc 57 d6 2c bc 03 8e 6a 3c 1f 53 f7 3c
       -0.02928757 -0.0105491495 0.014316085 0.030191002
000150 c7 75 02 3d ef e8 fa 3c a1 19 96 bc 51 cb 32 bc
       0.031850602 0.03062865 -0.018322768 -0.010912732
000160 01 30 1b bd be 65 ed 3b 0b d3 f8 3c 59 b2 ba 3c
       -0.037887577 0.0072447946 0.03037407 0.02279012
000170 d9 fa 1a 3b fb 23 5e 3c b4 33 9f 3c ca 65 ab 3b
       0.0023648052 0.013558383 0.019433834 0.00523064
000180 eb 6d 13 3c 7f 1a cd 3b 3e 95 29 3c 06 b0 ba bc
       0.008998374 0.006259262 0.0103505235 -0.022789013
000190 f3 93 e0 bb 3b 84 a1 bb ea 62 46 bc 7b 41 a1 bc
       -0.0068535744 -0.004929093 -0.012108544 -0.019684544
0001a0 de 42 50 bd 07 94 b0 bd 0c a5 57 bd c6 1a 1d 3c
       -0.05084502 -0.08621984 -0.052647635 0.009588903
0001b0 ce 12 98 3c ab a0 74 3a c4 2f d0 bd 90 f4 16 bd
       0.018563654 0.0009331803 -0.101653606 -0.036854327
0001c0 56 0b c9 bb 72 3a fc 3c 38 65 94 3b 23 18 47 bb
       -0.0061353846 0.030789588 0.004528668 -0.0030379377
0001d0 b0 d3 82 bc fa 82 ef bc 36 a1 f6 bb 4b ba 2c bd
       -0.015970081 -0.02923726 -0.007526542 -0.04216985
0001e0 64 6e 71 bd 34 e2 6d bb 22 51 2a 3b 6e da 26 bd
       -0.058943167 -0.0036298158 0.00259883 -0.040735655
0001f0 7b ef 35 bc e3 43 1d 3d 24 7c 10 bd f5 1d 22 3c
       -0.01110446 0.03839482 -0.03527464 0.009894838
000200 c7 45 1d 3d 80 cd db bb 3e 0b 80 3c e0 2b b4 bc
       0.038396623 -0.006707847 0.01563036 -0.021993577
000210 d9 61 f2 bc 8d 44 a4 bc 2f 3e 1c bd ec 9d 88 ba
       -0.029587673 -0.020052219 -0.03814524 -0.0010423041
000220 2a cc b5 3c 57 1b e8 3c 4f d6 1c 3c 1f 45 d9 bc
       0.02219208 0.02833335 0.0095725795 -0.026522217
000230 e2 5e ab 3d c3 41 98 bc 79 d0 09 3d 30 8d e4 bc
       0.08367707 -0.018586045 0.03364608 -0.027899355
000240 07 a9 37 bd b4 6d fc 3c 49 36 f8 3c ef b4 bf 3a
       -0.04483893 0.03081403 0.030299323 0.0014626066
000250 10 70 30 3a ca c8 9d 3c 02 79 ff 3c d0 88 c4 ba
       0.0006730566 0.019260783 0.03118563 -0.0014994387
000260 17 cf 0c bd 99 e0 01 bd d5 0d db 3b 42 46 8b 3c
       -0.034377184 -0.031708334 0.0066849985 0.017001275
000270 5d 58 11 bd f1 d6 d9 3c 08 7c 15 3d 42 0a 69 3c
       -0.03548466 0.02659175 0.03649524 0.014223637
000280 f7 c9 88 bd c4 93 a4 bc 3a 38 76 ba 81 3d 5a 3b
       -0.06679147 -0.020089991 -0.00093925337 0.003330082
000290 b0 ac f1 bc d2 b2 8b 3c 8d 79 3f 3c 7f 3b 99 bd
       -0.02950129 0.017053042 0.011686695 -0.07482051
0002a0 be a9 00 bd b4 61 15 bd 66 aa 92 3c 30 cb 45 3c
       -0.03141188 -0.03647013 0.017903518 0.012072369
0002b0 4a fd 26 3d a1 aa 10 bd 1b fe 15 bd 43 db 28 3d
       0.0407689 -0.035318974 -0.036619287 0.04122473
0002c0 24 dc d7 3d 9e a4 97 3d f9 59 e3 3c 8d 1b 9a 3c
       0.10540035 0.07404445 0.027752863 0.018811965
0002d0 22 2a 0b bd b1 b6 8e bc 34 5e 28 3d 79 0d 2f bd
       -0.033975728 -0.017421098 0.041105464 -0.042737458
0002e0 a8 27 dd bc 78 4d ed bc ce 7a aa 3c 6f 98 51 3b
       -0.026996449 -0.028967604 0.020810511 0.0031981727
0002f0 b3 3b c7 bb 4e 46 1f 3d da 78 78 bd ac 9d 78 bd
       -0.0060801147 0.038885407 -0.060662128 -0.060697243
000300 58 62 9c 3b 02 c9 2e 3c fc b7 46 bc 0c f9 25 bd
       0.0047724657 0.010668041 -0.012128826 -0.040520713
000310 e5 15 c7 bd 1c 2a cb bd 1f e2 88 bd 13 13 42 bd
       -0.09720973 -0.09920141 -0.06683754 -0.04738147
000320 72 ff b0 bc 28 0c 79 bc 21 26 0b bc 9b 1b a8 3c
       -0.02160618 -0.015200652 -0.008492977 0.020520976
000330 7b 31 08 bd a1 71 11 3a f0 b3 1f 3d 60 aa 33 ba
       -0.033250313 0.0005548243 0.03898996 -0.0006853696
000340 00 6c 24 bd ab 6d bf bc 0f 86 53 3d ec cd fb 3c
       -0.04014206 -0.023367723 0.05164152 0.03073784
000350 20 f1 05 3c 77 77 1a bd fd 99 d9 bd 45 83 f8 bc
       0.008175164 -0.037711587 -0.10625074 -0.030336032
000360 ae da db bb cd d9 ab 3d 50 3d 06 3d c5 0b 21 bd
       -0.0067094183 0.083911516 0.032773316 -0.039317865
000370 34 4f 5f bd 95 53 71 bd b3 0d ba bc 4a 16 a8 3d
       -0.054518893 -0.0589176 -0.02271161 0.08207376
000380 9f c9 b5 3b ef 99 0b 3d fb b3 90 3d 88 15 c5 bc
       0.0055477167 0.03408235 0.070655786 -0.024058118
000390 2d cb 17 bc cb fe 88 3d d4 c2 d7 3c ea 1e 2f 3d
       -0.0092647495 0.06689223 0.026338018 0.04275409
0003a0 07 70 9f 3d 2c 09 d4 3a 24 44 cb 3c 92 ae bb 3c
       0.077850394 0.001617705 0.024812765 0.02291039
0003b0 57 e5 f0 3b b8 b9 7c bb cf 15 a5 bc 23 2f ca 3c
       0.007351558 -0.0038562845 -0.020152 0.02468068
0003c0 47 19 20 bc c4 46 42 bd c5 85 5a bd 82 2b 4c 3d
       -0.009771652 -0.04743077 -0.05335023 0.04984618
0003d0 11 2a a2 3d ad bc 33 bc 94 3b 94 3c 22 94 77 bc
       0.0791818 -0.010970277 0.018094815 -0.015111001
0003e0 13 6e b8 bb 56 9d 83 3c b2 1b 3e bd ef 6c 03 bd
       -0.0056283562 0.016066235 -0.04641313 -0.03208631
0003f0 55 b6 a4 3c 73 9e 19 3d 6b 7c c5 3d ad da 54 bd
       0.020106474 0.037504625 0.096428715 -0.051966358

fc1.bias f4 [120]
000000 9e 5e 25 bc 28 b1 96 bc cf 20 6d bc c7 60 2f bd
       -0.010093359 -0.018395022 -0.014473154 -0.042816903
000010 50 85 04 bd 15 6d 26 3d 56 cc b9 3d c5 68 8d 3d
       -0.0323537 0.040631372 0.09072177 0.06904749
000020 7f 0d 86 bc 29 c3 a7 3d 3f af ed 3c 54 c0 21 3e
       -0.016363857 0.08191521 0.029014228 0.15796024
000030 b9 37 09 3e 27 02 31 bd 79 ee 71 3c 5d d3 47 bd
       0.13400163 -0.043214943 0.014766329 -0.048785556
000040 47 4a 0d bc 9b 73 5f bd 47 26 b0 3d 36 a5 0c 3e
       -0.008623666 -0.05455361 0.08601051 0.13734898
000050 9e cc 4b bd 66 a6 04 be 49 45 5c bd 1d 7f 0e bd
       -0.049755685 -0.12954101 -0.053777013 -0.034789193
000060 36 6e cb 3c 43 6b c1 bc bd 39 88 3d fe 84 07 3d
       0.024832826 -0.023610717 0.06651638 0.033085816
000070 3a a1 57 bd 54 54 92 bc 20 ef 1c bb 3c 7e b2 3d
       -0.052643992 -0.017862476 -0.002394624 0.087154835
000080 b7 25 6d 3b df be d0 bc 4f 3c 08 bd 34 f4 cf bc
       0.003618581 -0.02548164 -0.03326064 -0.025385
000090 eb e8 f6 bc c0 67 63 bd f6 66 77 3c 32 c4 75 bb
       -0.03014036 -0.055518866 0.015100231 -0.0037500975
0000a0 a8 91 3f bd 10 0d 24 3e 5c 79 c1 bb 21 47 1c bd
       -0.046769768 0.16020608 -0.0059043597 -0.03815377
0000b0 91 f0 a0 3d 3d 7e e3 3c 78 78 e8 bc 9c 96 10 3e
       0.078583844 0.027770156 -0.028377756 0.14119953
0000c0 36 af b8 3b 48 1e d0 3b 9f cb fe bc 17 44 dd bc
       0.005636121 0.006351266 -0.031102953 -0.027010007
0000d0 4c 8d 3f bd 22 d3 93 bc a3 aa 3c 3b f2 fd 3a 3c
       -0.04676561 -0.018045012 0.002878823 0.011413084
0000e0 38 a9 2c bd 7c 8d af 3c 20 cd 28 3e b7 f3 e5 3c
       -0.042153567 0.02142977 0.16484499 0.028070314
0000f0 73 05 4b 3c 60 56 63 bd ed bd 11 bd 39 23 38 bd
       0.012391436 -0.055502295 -0.035581518 -0.044955466
000100 76 d3 f5 bc d8 b6 a0 3c 10 a1 48 bd 05 04 93 bc
       -0.030008059 0.019618437 -0.048981726 -0.017946253
000110 05 0e 69 bd 9e 1f 89 bd 5c 00 3f 3d 9d 4f 3f bc
       -0.056898136 -0.066954836 0.046631202 -0.011676696
000120 9a 2f 3c 3c 53 11 8e bc 17 dc 73 3d 72 19 1d 3d
       0.0114859585 -0.017342245 0.059536066 0.038354345
000130 93 f0 91 bc 3e 3b c6 3c a9 a8 22 3d 06 38 b1 bc
       -0.01781491 0.02419817 0.039711628 -0.02163316
000140 32 7d 59 bd 4b f2 b2 3d 43 13 86 bd 8e 7c c6 3d
       -0.05309791 0.0873762 -0.06546643 0.09691726
000150 2c 0e 03 bd 03 73 12 3c 71 82 f8 3d f5 d6 2b ba
       -0.031995937 0.008938554 0.12134255 -0.00065551634
000160 1a 91 2b bd c2 c3 35 3d 21 05 21 bc ea cd bd bd
       -0.041886427 0.044376142 -0.009827883 -0.092677906
000170 fd f0 70 3d 26 d9 5f 3b 72 ee 32 3c fa d3 21 3c
       0.058823574 0.003415653 0.010921108 0.009877199
000180 65 1b 9f bc e2 04 b7 3d 00 ab 5a 3d a6 b4 ac 3d
       -0.019422242 0.08936478 0.053385735 0.084328935
000190 13 7c de 3c f8 fb f2 bb a3 6f 58 3c 04 4c 00 3d
       0.027158773 -0.007415291 0.01321021 0.031322494
0001a0 83 3b 19 3d e8 b9 33 3d 34 b4 9e 3c 1a ae a3 3c
       0.03741027 0.043878466 0.019373037 0.019980479
0001b0 16 63 c2 bc 0d fe 13 bd 56 45 88 3c 52 4b 80 3c
       -0.023728888 -0.036130954 0.016634624 0.015660916
0001c0 01 5a d2 bd 32 bf 21 3e b6 71 3e 3d 94 9b 45 3c
       -0.10271073 0.15795591 0.046495162 0.0120610185
0001d0 b5 e5 af bd 77 27 45 bb cc 00 60 3d 3e 63 13 bc
       -0.08588735 -0.0030083337 0.05468826 -0.008995829

fc2.weight f4 [84, 120]
000000 e7 25 db 3d 01 33 01 3d 70 da fe bd dd 9e 9e 3d
       0.10700589 0.03154278 -0.124440074 0.077451445
000010 bc 1c 3a bd 04 bc af 3c 13 20 bc 3d cb 53 3a 3e
       -0.04543756 0.021451958 0.09185805 0.18196027
000020 de fe 64 bd 32 7d d7 3d 09 91 f2 bc 95 12 25 bd
       -0.055907123 0.10521926 -0.029610174 -0.040300924
000030 d3 65 44 3d 1b 5b c0 bd d2 40 b5 bc 98 3d 61 bd
       0.04794867 -0.09392377 -0.022125635 -0.05499038
000040 46 27 3b 3d 50 ab 25 3e 44 34 f7 bc aa 56 5a 3c
       0.04569175 0.16178632 -0.03017629 0.013326326
000050 25 ec 35 3d 39 43 ad bc 69 33 aa 3d 0b 92 bc bd
       0.044414658 -0.021150218 0.08310587 -0.09207543
000060 ed f2 e0 3d 40 49 0c bd 9b 2a a6 3d b3 2a 03 3c
       0.109838344 -0.034249544 0.08113595 0.008005786
000070 cb 07 79 bd 0d ca 94 bd 06 76 e9 3c a9 55 02 bd
       -0.060798448 -0.07265101 0.02849866 -0.031819973
000080 36 ce 9b bc e2 17 c3 3d 61 3e 22 3b 33 1b d8 bc
       -0.019019227 0.0952604 0.002475642 -0.026380157
000090 27 c3 a1 bd 33 a3 ce bc 17 5f f8 3c 72 79 4b bd
       -0.078985505 -0.025224304 0.03031878 -0.049676366
0000a0 83 02 d5 bd a9 32 09 bd 26 1e 8f bd 3e 44 75 3d
       -0.1040087 -0.03349558 -0.06988172 0.059879534
0000b0 77 67 12 be 06 75 07 3d c7 be 35 bd 73 f0 67 bd
       -0.14297281 0.033070587 -0.044371393 -0.056625795
0000c0 76 a5 bb bc e4 d3 20 3d ce 67 33 bc a6 ce 68 bd
       -0.022906046 0.039264575 -0.010950042 -0.0568377
0000d0 b0 be 08 bd 5a cb f1 3d a6 36 8d 3d 4f 84 a1 3d
       -0.03338498 0.11806364 0.06895189 0.07886564
0000e0 2b af 95 3d 04 e5 6b 3d 02 64 d1 3d 64 47 60 bc
       0.07308801 0.057591453 0.10224153 -0.013688896
0000f0 8c 12 ce 3d 31 bc fc 3b a3 e9 5c bd 1a 81 cc 3d
       0.10062131 0.007712864 -0.05393375 0.09985562
000100 92 e8 9c bd 47 04 2a bc 58 76 df bd f1 18 23 3e
       -0.07661547 -0.010376996 -0.10911244 0.15927483
000110 37 9a 32 3d 5e d5 04 3e b9 9a 2d 3e 68 4d 2f 3b
       0.043604102 0.12972018 0.16953553 0.0026749019
000120 44 dc 35 bd 93 b8 07 bc 76 b8 b8 bd 20 aa 0b 3d
       -0.044399515 -0.008283752 -0.09019558 0.03409779
000130 60 da 1a 3d 32 d9 b6 bd 54 75 50 bd 2b 71 97 bb
       0.037805915 -0.089281455 -0.050893143 -0.004621645
000140 45 14 64 bc a8 a5 1d 3e f4 b5 11 be 6e 4a eb bd
       -0.013920848 0.15395224 -0.14229566 -0.11488806
000150 b0 32 a0 3b 9a 7b f8 bd 4e 1c f0 bd 0c d4 81 3a
       0.004888855 -0.1213295 -0.11724149 0.0009905114
000160 d7 06 85 3d 9f 61 a0 3d bc bd 8c bd 45 45 74 bd
       0.06495445 0.0783112 -0.068721265 -0.059636373
000170 05 54 1f be 03 f0 a8 3c 48 68 1f 3d 11 0d 91 3d
       -0.15559395 0.020622259 0.03891781 0.0708257
000180 d4 9a de bd e3 77 98 3d af 36 02 3e 6a c6 94 3d
       -0.10869375 0.074447416 0.12716173 0.07264407
000190 cc 70 99 3d df 39 af 3d 87 39 a2 3d 62 66 3f 3c
       0.074922174 0.0855596 0.07921129 0.011682125
0001a0 a2 98 27 39 4a 54 4b bc 40 5e e1 3d d6 24 2c 3d
       0.00015983221 -0.012410233 0.11004305 0.042027317
0001b0 0e f2 92 3a 0a bd 25 bd f7 05 ab bd 75 51 91 3d
       0.0011211054 -0.040463485 -0.08350747 0.07095615
0001c0 9b ea de 3d 7e 92 c3 bd b2 d7 14 3e e1 33 12 3c
       0.10884591 -0.095494255 0.14535406 0.008923502
0001d0 4f 27 cb 3d 45 a4 e8 bc 85 c0 b4 bd e5 12 d5 3c
       0.09919607 -0.028398642 -0.08825783 0.026009986
0001e0 1d 84 13 3d e6 1d 77 3d a1 0a 09 be 02 75 9e 3d
       0.036014665 0.060331248 -0.13382961 0.07737161
0001f0 df 64 4b 3d e5 41 01 be 1b 33 55 bd 57 d4 a9 3b
       0.049656745 -0.12622793 -0.05205069 0.0051827836
000200 0a 14 36 bd b6 0f 94 3d d8 a2 0b 3d c0 72 a2 bd
       -0.044452704 0.07229559 0.034090847 -0.07932043
000210 d3 a4 ad 3d 55 c2 83 3c ee b2 3b bc 8f 05 41 bd
       0.08478703 0.016083876 -0.011456234 -0.04712444
000220 26 e8 d5 3d d7 4c 38 3d 0d ca ec bd 18 bb c5 bd
       0.104446694 0.044995155 -0.11561976 -0.09654826
000230 00 16 c8 3d a2 ae bc 3d d1 80 8d 3d 88 97 27 3d
       0.09769821 0.09212996 0.069093354 0.040915996
000240 d7 8c e3 3d 21 72 ff bc 28 16 72 3d 46 b9 d9 3c
       0.111108474 -0.03118235 0.05910316 0.026577603
000250 75 0a b7 3d aa ca 7d 3d 8f 66 46 bd 27 bc bd bd
       0.089375414 0.061960854 -0.04843765 -0.09264403
000260 e2 40 2c 3c 6c ed 2d bb 9c 9b 04 be cf 67 3f 3d
       0.010513516 -0.002653922 -0.12949985 0.04672986
000270 69 5e b2 bd 69 c1 7a 3c 25 8e 50 bd 5c fa 88 bd
       -0.087094136 0.015304902 -0.05091681 -0.06688377
000280 07 f4 fa bd d4 e1 48 3d f6 62 26 3d a6 b8 6f bd
       -0.12253576 0.04904349 0.04062172 -0.058525704
000290 c6 f6 05 bd ef ba f3 3c ff b0 25 bd aa 0e d0 bd
       -0.032706045 0.029752223 -0.040452 -0.10159047
0002a0 f5 70 a5 3d 8b ff 42 bd 4a fb c9 3d 53 16 01 be
       0.080781855 -0.047606986 0.09862383 -0.12606172
0002b0 0c 5a 8c 3d bb 36 b8 3d e6 c6 b1 bd 3b e2 a0 3c
       0.068531126 0.08994814 -0.08680515 0.019639125
0002c0 45 1c e9 3c b6 be 62 bd 8f 02 1e bd 6e 77 a1 bc
       0.028455863 -0.055357657 -0.03857666 -0.019710269
0002d0 e8 e3 06 3d aa 7d 98 3c c1 b9 53 3d 16 71 ee 3c
       0.032932192 0.018614609 0.05169082 0.029106658
0002e0 55 ec c4 3d f6 71 5a 3d a9 1b 01 bc bb 6a a9 3c
       0.09615389 0.053331338 -0.00788013 0.020680776
0002f0 cc 7b cc bd 1d 33 5d 3c a2 b6 38 bd c2 61 1c bd
       -0.0998455 0.013500956 -0.045096047 -0.038179167
000300 de 64 2d 3d f3 cd ad 3d c1 34 b2 bd 8b dc f8 bd
       0.042332523 0.08486547 -0.08701468 -0.1215144
000310 04 6d aa bc 72 58 9c 3d 9e 8b 89 3d 0b 76 6c 3c
       -0.020803936 0.07634057 0.06716083 0.0144324405
000320 75 cd 6e 3d a9 2a 58 3d 1f 76 3b 3d af ce 1f bd
       0.058301408 0.05277506 0.045766946 -0.03901547
000330 3f 9c 29 3d 8c a0 52 bd b9 cd 03 3d 15 b2 43 bd
       0.041408774 -0.05142264 0.032178614 -0.047777254
000340 e1 13 b9 3c 90 1a 38 bd b7 76 e4 bb 96 a5 c5 3d
       0.022592487 -0.044947207 -0.0069721597 0.09650724
000350 15 9c 96 3d f5 87 3e 3d 3d 17 b6 bd 48 60 0a bd
       0.07353989 0.046516377 -0.08891151 -0.033783227
000360 c5 63 70 3d f1 5d a2 3d 1b c1 e8 3d 7f e0 d8 3d
       0.058688898 0.07928074 0.11364957 0.10589694
000370 d8 2c 8e bd d2 cf 0b 3e d0 04 c1 bd 2b a2 ac bd
       -0.06942147 0.13653496 -0.09424746 -0.084293686
000380 e8 87 b7 bd 55 9d ae bd 46 a3 59 3d 6c a4 4b bc
       -0.08961469 -0.085261025 0.053134225 -0.012429338
000390 1d e1 c2 3d d8 d0 e0 3d 22 01 9a bd 8b 33 78 3d
       0.09515593 0.10977334 -0.07519747 0.06059603
0003a0 60 eb d0 3d 9b b2 b9 bc f7 fd 14 bd 1d dd 9f bc
       0.10201144 -0.022668174 -0.036375012 -0.019514615
0003b0 8f 95 f4 3a 8f d1 ff 3d 4e ca da bd 25 5d 28 bd
       0.0018660295 0.12491142 -0.10683118 -0.041104455
0003c0 27 46 2f bd b6 a6 5e 3d 9f 31 2a 3e 71 04 0f bd
       -0.042791512 0.054358207 0.16620491 -0.034916345
0003d0 a9 5a 46 3e e1 05 03 3e 88 08 5f be ed 8b a9 bd
       0.19370522 0.12795211 -0.21780598 -0.08278642
0003e0 f9 93 b4 3d 5e 5c 07 3e d9 3a dd bd 4e ea eb 3d
       0.08817286 0.13218829 -0.1080224 0.115192994
0003f0 75 b7 bb 3c 55 2e 01 3e 99 29 c1 bb 37 c3 1b 3e
       0.022914628 0.1261533 -0.0058948514 0.15211187

fc2.bias f4 [84]
000000 ab 41 f8 3c 89 ef 3a bc b7 54 9a bd df b4 1f 3c
       0.03030475 -0.011409649 -0.07535689 0.009747713
000010 9a a8 6e bd 4f b4 06 be 6a 73 09 3e a8 9a fc 3c
       -0.05826626 -0.1315472 0.13422933 0.030835465
000020 dd 61 16 3c d0 56 ed bc 26 16 31 bd 0e b2 bb bc
       0.009178606 -0.02897206 -0.043234013 -0.022912052
000030 e6 35 39 3b f5 a1 eb 3c 96 d5 93 bd 00 e7 6d 3c
       0.0028260886 0.02876375 -0.07218473 0.014520407
000040 ba 30 40 3d 71 25 8e ba 9d 4e 40 3d 07 7e 51 3e
       0.04692147 -0.0010844899 0.04694997 0.20458232
000050 57 34 b1 3c 9d 63 91 3e ca 60 e9 bd 5f a0 8d bd
       0.021631403 0.2839631 -0.11395414 -0.06915354
000060 73 b4 8e 3c 10 9f 66 bc dc ee bb 3b 47 ba f5 3d
       0.01742003 -0.014076009 0.0057352614 0.1199842
000070 0f e0 a7 3c c1 45 48 3e d2 e9 6d ba 9f 46 05 bd
       0.020492582 0.19557859 -0.00090756745 -0.032538053
000080 62 09 e8 3c 88 65 97 bc 63 71 a2 3c 1e 1a 86 bb
       0.028324787 -0.018481031 0.019829458 -0.004092469
000090 e8 e9 c4 3d 6c f8 32 bc bc b3 18 be 49 c6 86 bc
       0.096149266 -0.010923486 -0.14912313 -0.016451972
0000a0 fa 3e 58 3d cc 34 0d 3e ce 26 fe bc 5f ae e0 ba
       0.052794434 0.13789672 -0.031024363 -0.001714181
0000b0 fb 35 17 3c ac d2 f5 bc 29 15 99 3d 62 4e 86 3d
       0.009229179 -0.030007683 0.07474739 0.06557919
0000c0 9d fb ed bd e6 33 fa bc 57 71 15 3e 12 13 62 3c
       -0.11620257 -0.030542325 0.14594017 0.013798492
0000d0 8f 01 2c 3d 11 81 89 3c 82 a9 26 bd 46 65 5f bd
       0.041993674 0.016785176 -0.040689 -0.05453994
0000e0 6e f0 85 3d f2 5f 06 3c 86 52 7c 3d 8e d3 75 3c
       0.06539999 0.008201586 0.061602138 0.015004052
0000f0 c1 c1 be bc 3c 62 e6 bd 35 1a 6b 3b 1e ad 81 3e
       -0.023285748 -0.112492055 0.0035873775 0.2532739
000100 1c 4f 09 bd 61 27 3b 3e e0 22 97 3d 81 8a 3d 3e
       -0.03352271 0.1827674 0.07379699 0.18509866
000110 fd 30 83 3d c8 8d 9c bc 30 0b c2 bd 3c 58 1b 3b
       0.06405828 -0.019110575 -0.0947479 0.0023703715
000120 fd e4 19 3e dd 4b dc 39 0f 50 56 bd a6 86 d6 bd
       0.15028758 0.00042018192 -0.052322444 -0.10474901
000130 26 52 29 bd 98 a4 d3 bd 66 c0 84 3c 24 45 1a bd
       -0.04133811 -0.10334128 0.016205024 -0.037663594
000140 6f 09 f1 bc 6a d4 43 3e 5c 94 be bd c8 01 27 3e
       -0.029423444 0.19123998 -0.09305641 0.16309273

fc3.weight f4 [10, 84]
000000 bc 1c a7 3e 8e 23 73 3e 53 14 53 3c 53 52 df 3b
       0.3263911 0.23744032 0.012883264 0.0068152337
000010 d3 1b 6e 3d a7 f1 bb 3d fd ff 61 be fc d5 68 3e
       0.058132004 0.09176951 -0.22070308 0.22737879
000020 5a 33 ef bd 54 53 ae bc 70 90 e7 3d 37 9b c0 bd
       -0.116797164 -0.021279968 0.11306846 -0.09404605
000030 da 16 a0 3e 0e 76 83 bd ea 8c 04 bd 2c 61 ff 3b
       0.31267434 -0.064190015 -0.03236095 0.007793566
000040 ce 35 bc 3b 90 9b dc 3e 50 ea b0 bd 42 ce 01 be
       0.0057437187 0.43087435 -0.086384416 -0.12676337
000050 29 5e 7c 3d b7 64 a1 bd 5c 72 80 3e dc e1 b2 bd
       0.061613236 -0.07880538 0.2508725 -0.087344855
000060 e8 b8 04 3d 7c b9 c4 3d 6b 27 a7 3e 78 68 d2 3c
       0.032402903 0.09605691 0.3264726 0.02568458
000070 fe 4f 2e 3e 80 ce 01 3e f3 6f 6f 3e b3 22 32 3e
       0.17022702 0.1267643 0.23382549 0.17396049
000080 e1 72 1b be bd 59 a5 bd 1c 1c 72 bd ae 12 40 3e
       -0.15180542 -0.08073757 -0.05910884 0.18757126
000090 79 2b 30 3d dc 70 5b 3d 3d 58 3e 3e be e4 2e be
       0.04301021 0.053574428 0.18588348 -0.17079446
0000a0 d1 39 77 be 19 fe 45 be 69 a2 75 3e ef ee 4e be
       -0.24143149 -0.19335212 0.23987736 -0.20208333
0000b0 01 b1 c5 bd d9 e7 fe 3c 49 fa 07 bd ea 4d f6 bd
       -0.096529014 0.031116413 -0.033197675 -0.1202658
0000c0 21 51 84 be 83 da fc 3d a6 1f 88 bd 07 0b fd 3d
       -0.25843146 0.12346365 -0.066466615 0.12355619
0000d0 14 b4 10 3e 4a 74 0d 3e 30 f6 03 3d fe 90 02 be
       0.14131194 0.13813892 0.032217205 -0.12750623
0000e0 ee 17 1b bd 85 61 ed bd 08 fa 0c 3d 2f 67 58 be
       -0.037864618 -0.11590866 0.034418136 -0.21133111
0000f0 c4 54 b2 bd 55 0e c3 3c dd 8c c4 3c 10 d4 b1 be
       -0.08707574 0.023810545 0.02399295 -0.34732103
000100 ff b5 0c be fc 3f b7 be 22 39 80 3e 82 50 0c be
       -0.13741301 -0.35791004 0.2504359 -0.13702586
000110 a9 81 f7 3d c8 da 81 3d ff b5 04 3c 3e eb 2b be
       0.120852776 0.06340557 0.008100032 -0.16788957
000120 09 e8 14 be aa 77 47 bd 97 59 4e 3e 8a a5 67 3e
       -0.1454164 -0.048698105 0.20151363 0.22621742
000130 f1 c1 5b 3e 5c 5c 3a be 46 b4 45 bd 19 e1 fd 3c
       0.21460702 -0.18199295 -0.048267625 0.030991124
000140 70 cb 05 3d 6c 09 f8 bd c0 35 3b bc 36 3a 11 3e
       0.032664716 -0.12111172 -0.011426389 0.14182362
000150 37 9f c3 3d bf 9f 2b 3e 5b ee d0 bd 8b 59 7f 3c
       0.09551852 0.16760157 -0.10201713 0.015585314
000160 29 a1 84 3e 01 72 ef bd 30 d7 49 be ed 0a 67 3c
       0.25904205 -0.116916664 -0.19710994 0.014101726
000170 ed 7c 77 bd c1 04 87 3d 91 86 41 3d 3d 3b 60 3e
       -0.060421873 0.065927036 0.047247473 0.21897598
000180 9a 2f 71 be 57 e7 89 3e 7d 22 a0 bd 81 c5 0e be
       -0.23553315 0.2693431 -0.07819078 -0.1394253
000190 8f 9b 9d 3d 7a b4 bd be 83 82 25 3e b9 d0 70 be
       0.07695686 -0.37051755 0.16163068 -0.23517121
0001a0 b4 33 11 be 19 84 f3 bd 0c 83 a1 bd 48 52 81 3e
       -0.1417988 -0.1189043 -0.07886323 0.25258088
0001b0 40 87 ab 3e 8c b6 92 3e 0b de 8a 3d be 7d 49 3e
       0.33501625 0.28654897 0.067806326 0.19676873
0001c0 2b 87 8e 3c 0b d8 86 be d5 be 6d bd 94 e0 3d 3e
       0.017398437 -0.26336703 -0.05804332 0.18542701
0001d0 84 42 88 3d 41 c2 01 3d 34 7a 1f 3e 2f 21 92 3d
       0.06653312 0.031679396 0.1557396 0.071352355
0001e0 55 aa db bc 3a a4 2f 3e ea cd 46 be f2 3e a3 bd
       -0.02681462 0.17152491 -0.19414487 -0.0797099
0001f0 4f 09 44 3e cb dd 4f 3c e9 7a 3b bd 7b 43 13 be
       0.19144176 0.012687157 -0.045771513 -0.1438121
000200 27 73 40 3e fe cb 35 3e 8c c5 78 bd aa 3a 07 3e
       0.18793927 0.17753598 -0.06073527 0.13205972
000210 bd 6c db bb 0e 90 ba bc 4b 1a 05 be ae 65 5d 3e
       -0.006696312 -0.022773769 -0.12998311 0.21620819
000220 cd 2b 47 be 30 e1 51 3d 61 35 e1 bd 1d 36 74 bd
       -0.19450302 0.051240146 -0.10996509 -0.05962192
000230 84 9f 45 be 65 f1 ee 3d 40 90 dc 3d 64 0c 88 3d
       -0.19299132 0.11667136 0.10769701 0.06642988
000240 7a 6c 67 3c 52 a9 6f 3d 64 c9 49 be 42 0d 38 bd
       0.014124984 0.058511086 -0.1970573 -0.04493452
000250 41 54 86 bd fa 8a 69 3e 2b 17 88 3e 9f a9 f5 bd
       -0.06559039 0.22806922 0.26580176 -0.11995243
000260 38 4c 01 be 00 e9 32 be 58 bf c4 be ac c5 67 3d
       -0.12626731 -0.17471695 -0.38427234 0.056585
000270 d3 4e 67 3e bf 34 d9 bd d4 76 12 be 71 de 52 3e
       0.22588663 -0.10605764 -0.14303142 0.20592667
000280 da 85 b3 3d c8 68 8c bd 3a f9 d0 be a7 e0 95 bd
       0.087657645 -0.06855923 -0.40815145 -0.0731824
000290 4e 94 b9 bd c1 88 f6 3b fe 14 c7 3c 33 8c 5e be
       -0.0906149 0.0075236266 0.024302002 -0.2173317
0002a0 6c e5 52 be 97 18 68 be 75 86 2d 3e 51 1e bf 3d
       -0.2059533 -0.2266563 0.16945823 0.09331954
0002b0 68 50 ca 3d 7f 9c 4f 3d d3 30 99 3e e0 a5 2d 3e
       0.098786175 0.050686356 0.29920062 0.16957808
0002c0 b5 16 99 be 46 65 dc 3d c3 05 fa 3d 39 cc 90 3e
       -0.29900137 0.10761504 0.1220813 0.2828081
0002d0 16 6e 55 3e 10 b6 d6 bd 7b de 70 bd 68 6d b0 3e
       0.20842776 -0.104839444 -0.058805924 0.3445847
0002e0 e0 26 d3 3d 33 c4 1e 3e f1 9b 3c be bf ed a0 bd
       0.10310149 0.15504532 -0.18418862 -0.078578465
0002f0 1d e8 17 bc ed 22 6b 3e b3 39 fd 3c 65 22 08 be
       -0.009271649 0.22962542 0.030911302 -0.1329437
000300 b4 ee 7b be 2f 80 b7 bd 88 42 bc 3c 49 cf 00 be
       -0.24602777 -0.08959996 0.022980943 -0.12579073
000310 11 82 19 3e 59 06 dd 3d 8b 6c a2 bd 20 08 be bc
       0.14991023 0.10792226 -0.07930859 -0.023197234
000320 96 2c f8 3c 68 83 22 be 5b 36 33 3e 13 a0 c0 bd
       0.030294698 -0.1587044 0.17501204 -0.09405532
000330 c0 a0 28 3e 14 fa 91 bd 4c 04 4a 3e fe ca 8f bd
       0.16467571 -0.07127777 0.19728202 -0.070211396
000340 ba e1 5b be 24 bb e8 bd a1 7f aa bd 60 7d 72 3e
       -0.21472827 -0.11363819 -0.083251245 0.2368064
000350 70 2b 58 bd 5d 29 08 3e 7c 56 3e 3e 4c a7 7a 3e
       -0.0527758 0.13297029 0.18587679 0.24477881
000360 f9 46 0b be 02 c3 b3 bd 9f 39 fb bd b3 08 bc bd
       -0.13601293 -0.08777429 -0.1226685 -0.09181347
000370 47 62 39 3e 0d c4 59 3e 3c 7f 01 bd 85 2b 51 3e
       0.18103896 0.21266194 -0.03161548 0.20426758
000380 6d 6c 94 3e 41 07 20 3d f8 b3 57 3d cd bb ed 3b
       0.28988972 0.039069418 0.052661866 0.0072550536
000390 a0 28 e3 bd 7e 60 6f 3e e9 42 a9 3e ea d7 ba 3e
       -0.11091733 0.23376653 0.3305886 0.36492854
0003a0 04 2e 71 be 0d 99 6e be 05 82 41 3e 4c 58 75 3e
       -0.2355271 -0.23300572 0.18897255 0.23959464
0003b0 17 f9 38 3e 52 b9 30 be 97 3a 47 be 73 a9 46 be
       0.1806377 -0.17258194 -0.19455944 -0.19400577
0003c0 00 2a 33 be 9d 97 ab bd 96 28 0a 3e cc 6f f5 bc
       -0.1749649 -0.08378527 0.13492045 -0.029960535
0003d0 1d 4d c0 3c 04 77 af 3b ad 50 7c 3e 87 81 b4 bd
       0.02347427 0.005354764 0.2464015 -0.08813768
0003e0 8a 81 5d 3d fc 38 97 3d 9b 76 a5 bd 91 2d 5b 3e
       0.054078616 0.07383916 -0.08079263 0.21404101
0003f0 2f e7 ae bd d4 9d 0b bd 6e dc ed bc 88 26 c1 bd
       -0.085401885 -0.034086064 -0.029035773 -0.094311774

fc3.bias f4 [10]
000000 93 cc bf be be 04 d7 bc b7 a1 71 3e 21 3a 35 3e
       -0.37460765 -0.026247378 0.23596846 0.17697956
000010 b1 d7 d6 3e 4a 37 8a be d2 b1 99 3e 1d 85 19 be
       0.41961434 -0.26995307 0.3001848 -0.14992185
000020 38 f4 01 3e 24 0c 5f be
       0.12690818 -0.21781975
